Assets/Models/MoveToGoal.onnx (onnx, 73426 bytes, 7 tensors)

network_body._body_endoder.seq_layers.0.weight f4 [128, 6]
00000000: db68 cc3e a799 07bf 15cc 9d3e 6f95 88bf
00000010: bad6 db3d cf9b 19bf 277a c5be 9bd2 a53d
00000020: af24 08bf 5ee7 a03e 9b73 cfbe d6ce 55be
00000030: b907 c93e e55f 38bf 23a8 17be bf85 0a3f
00000040: f1f2 8bbe f492 c8bd c225 c83e c6e2 ba3d
00000050: 9cdc 1e3d a5ac dabe a2ff 67ba 194c 323f
00000060: f8e5 c83e 56e4 98bf 32f6 c63e b8a7 21be
00000070: af1e 0a3f 45cc 31bf 48e0 9cbe d2d6 1c3f
00000080: b4b0 e9be 096b 36bd 0428 453e e653 11bf
00000090: 54f5 12bd cbae 203e fca6 32be 0ea6 803e
000000a0: f9fd 083d 2a71 393f c537 6bbf 5cf7 3a3f
000000b0: 7c98 ffbc f605 f5bc 033a 3c3f 7151 b33e
000000c0: e0f0 873e dd77 0cbf 217a e53d 641c 513d
000000d0: 1188 da3e ab19 9e3e ed03 0e3d 5650 abbe
000000e0: eff3 353f 68b0 0cbf 4e18 14bf ac4d 633e
000000f0: e474 863e 03ef 78be cafb 0ebe 5cb0 6d3d
00000100: 36f6 3b3e 7304 003f 39df 023d 6bbd be3e
00000110: 6613 ebbe a3e9 c0be ae50 963e b3b6 36be
00000120: a420 d6bc d771 febe 2244 a53e de0c fabe
00000130: 532a 65be 9b8e febc 65bd e83d b49f 15bd
00000140: ffbe 26be f37f 1cbe 83f8 87be 5985 c23e
00000150: 7107 22be b0b8 373e 1a83 123f 2595 9fbd
00000160: 2476 f2be 2435 b2bc 32cb b9bd 49da d8bd
00000170: b20b debe b574 34bd eba5 623e 410b 74be
00000180: 5112 793e f075 c53d f1b9 97be 983f d63e
00000190: a27d a13e 5f99 d3be 03af 503e e093 86be
000001a0: ecd6 d23e 59b6 a23e 1277 dbbd 7fc6 6f3e
000001b0: 29ed bc3e f082 babd c749 063e 6e35 253f
000001c0: 9d2d c9be 3714 493f 03da 363f e533 35bf
000001d0: 2cd3 c1bd aca8 54be 7b01 a03e 0b7c 27be
000001e0: 0016 a7be 8a58 80be 3fc4 48bf 0229 e2be
000001f0: 5a67 20bf f315 e4be acd3 aebe a775 9e3d
00000200: 6b15 e6be 243a 7d3f 86db 31bd 487f f8bd
00000210: 17a2 8dbd b88c fb3e 3898 e13e cac9 de3e
00000220: decc 4ebf 4fb1 523e e905 023e 18a7 3ebf
00000230: 8208 f93e 09bd fbbd d4b6 1b3e 82ba 543e
00000240: 1960 aa3e 9b5d 34be 8add a9bc 2833 55be
00000250: 162c 833f b245 9b3e 2213 82bc 904b bdbe
00000260: 6bd1 243e 60a0 753e 2878 41bd d962 70be
00000270: 8189 683e bb4d 07bd 84ac 513f 8f30 16bf
00000280: 5a67 2cbf 150f a43e d84f c5bd 796f c9be
00000290: 1403 403f b27f e7be c9cb 81be a1a4 71be
000002a0: 3f30 193e cea9 0abf ffd1 d3be 2dc1 f8be
000002b0: 12c8 33bf 87fe 953e e3b7 f33d 1f53 a93a
000002c0: 1962 b23d fb81 54be a2c7 bd3c e1ef 543e
000002d0: b274 683e 38ef d53d 5db6 e9be 7a12 81bf
000002e0: 2f98 84be 0bf4 6abe 690c 773e ed6a 563d
000002f0: 5ee4 8ebe f076 94be d558 f0be 1f3d 303c
00000300: 4119 c33d 936d 96bf 1b93 00be d83a ea3e
00000310: fd53 27bf 40de ca3e 8040 e43c dc7d b43d
00000320: 727d 91be f0cb 98be 26df 06be fd6e bebe
00000330: d8ae 3a3e 24d4 783f d1c4 12bf a477 e63c
00000340: 4d43 a1be 2d48 1f3c af1a f23e f912 0b3e
00000350: 05cb ddbd 5281 ea3c 34bc e3be e266 583e
00000360: 7d54 4ebf 1389 3abe bcbf eabe 02d7 01bf
00000370: 344a 813f 0b4b afbe fc9b 9ebe 8939 e43e
00000380: 9f16 5f3f dcca 6bbe c3f2 d7be 9fb6 90be
00000390: 9210 133f 4ea3 4c3e 1181 8f3e 0af9 253e
000003a0: 2118 71bd 2187 c83e 504b b33d 7ed5 0cbb
000003b0: 6972 023f 2a18 edbb 4f80 35be 658e 56be
000003c0: db79 9b3c 5cb7 c2be 9c91 e2be 6c49 123e
000003d0: eb9d 373c f81c c13e 3a2c 9fbe c41a 16bf
000003e0: 7b83 17be 3984 d83b 91d0 58bd 9e27 e8bd
000003f0: 8478 a1bb 4841 bd3c 8614 b4be 577b 04bf
0.39923748 -0.5296883 0.30819765 -1.0670604 0.10734315 -0.6000337 -0.38569757 0.080968104
-0.53180975 0.3142652 -0.40517887 -0.20879683 0.39263704 -0.72021323 -0.14810233 0.5411033
-0.27333787 -0.09793654 0.39091307 0.09125285 0.03878461 -0.42709842 -0.0008850043 0.69647366
0.39237952 -1.1944683 0.38859707 -0.15786636 0.5395307 -0.69452316 -0.30639863 0.6126529
-0.45642626 -0.04453567 0.19253546 -0.56768644 -0.035878494 0.15691678 -0.17446512 0.2512669
0.033445332 0.724383 -0.9188197 0.7303369 -0.03120064 -0.029910069 0.7352602 0.35023072
0.2655096 -0.54870397 0.11204935 0.051052466 0.42681935 0.30878958 0.034671713 -0.3345973
0.7107534 -0.54956675 -0.57849586 0.22197598 0.26261055 -0.24309926 -0.13963237 0.058029518
0.18355641 0.5000679 0.031951163 0.3725389 -0.45913237 -0.3767825 0.2935843 -0.17843132
-0.026138611 -0.49696228 0.32278544 -0.48837942 -0.22379427 -0.031073859 0.11364249 -0.036529258
-0.16283797 -0.15283184 -0.26556787 0.3799236 -0.15823151 0.17941546 0.57231295 -0.07792119
-0.4735576 -0.021753855 -0.090719596 -0.105885096 -0.43368298 -0.044056613 0.22133605 -0.23832418
0.24323393 0.096416354 -0.2963405 0.41845393 0.31541163 -0.4132795 0.20379262 -0.26284695
0.41179597 0.31779745 -0.1071607 0.23415564 0.3689969 -0.091070056 0.13114081 0.6453465
-0.39292613 0.7854647 0.7142641 -0.7078231 -0.09464106 -0.20767468 0.3125113 -0.16355912
-0.32633972 -0.2506755 -0.7842445 -0.4417191 -0.626577 -0.44547996 -0.34145868 0.07737284
-0.44938216 0.9891684 -0.043422244 -0.12133652 -0.06915682 0.49130797 0.44061446 0.43513328
-0.8078135 0.2057545 0.12697567 -0.74473715 0.48639303 -0.12291915 0.15206462 0.20774272
0.33276442 -0.17613833 -0.02073552 -0.20820296 1.0247829 0.3032661 -0.015878264 -0.36971712
0.16095512 0.2398696 -0.04723373 -0.23475207 0.22708704 -0.033033114 0.8190386 -0.58667845
-0.673452 0.32042757 -0.096343696 -0.3934286 0.75004697 -0.4521461 -0.25350788 -0.23597957
0.1495981 -0.5416535 -0.41371152 -0.4858488 -0.7022716 0.2929575 0.11900308 0.0012918449
0.08710117 -0.20752709 0.023166481 0.20794632 0.22700766 0.10446018 -0.45646945 -1.0083764
-0.25897357 -0.22944658 0.24125828 0.052348066 -0.27908605 -0.28996992 -0.46942773 0.01075676
0.09526301 -1.1752189 -0.12556116 0.4574802 -0.6536253 0.39622688 0.027862787 0.08813068
-0.2841602 -0.29843092 -0.13171062 -0.37194052 0.1823076 0.971987 -0.5733157 0.028133221
-0.3149666 0.009721798 0.47285983 0.13581456 -0.108297385 0.028626118 -0.44479525 0.21132997
-0.8059767 -0.18216352 -0.45849407 -0.507187 1.010077 -0.3423694 -0.30978382 0.44575146
0.8714389 -0.23026603 -0.421774 -0.2826433 0.5744716 0.19984171 0.28028157 0.16208282
-0.0588609 0.39165595 0.08754599 -0.0021489556 0.50955826 -0.0072355466 -0.17724727 -0.20952757
0.018979004 -0.38030517 -0.44251716 0.1428582 0.011207084 0.37717414 -0.3108843 -0.5863459
-0.1479625 0.006607559 -0.05293328 -0.113356814 -0.0049276967 0.023102418 -0.35171908 -0.517507

network_body._body_endoder.seq_layers.0.bias f4 [128]
00000000: 1a01 c83c 4bda f73c c9bf b23c db5c 23bc
00000010: daa6 5c3c be60 043c fa93 3d3c 5f6a fb3b
00000020: 69e8 c4bc b289 ed3b 4522 703c 83e2 c93c
00000030: 88a7 063c b477 2739 6268 a5ba 9e14 393d
00000040: 21bb c63c b4ba 04bd 59b9 a83c 29f7 883c
00000050: e4b7 733c d947 793c 7ad9 093c 59c4 933c
00000060: c053 373d 173d eb3c 42fd 973c 2ee5 b53c
00000070: e16c 873c be07 72bb 4160 163d 51cf 983c
00000080: 8af1 ed3c 0812 2bbc 57f2 443d 82b5 133c
00000090: 8b74 133c cf1d 303c 8dda 0d3d 90e4 453d
000000a0: 9f80 5cbc c977 2c3b bc16 14bc 0a21 9dbb
000000b0: a40a 263b a519 973c 305d a7bc d3c1 483c
000000c0: e504 5b3d ae07 2e3c 23a4 3a3c 3d52 30bd
000000d0: 0b59 bbbb 48a9 f63c f0db ecba 5a2a 0d3b
000000e0: 430b be3c 9dba 98bb b261 293d 49bc cf3c
000000f0: dbea 553d 00ef cb3c ef12 d73c b877 213c
00000100: 2d4e ff3c 6838 253c b337 ef3a cd81 2a3d
00000110: 18b1 433c b9bb b23c c696 5cbc b46f 003c
00000120: 4bf8 703c 9828 9a3b 0361 b63c dfff 6cbc
00000130: e699 19bc 2c5d bb3c 6959 c5bb c243 9f3c
00000140: fb29 133c fa92 e53c 3b9c e63c 5319 5e3b
00000150: 7395 053d 5cb6 493b 57fb 1b3d a32c 41bb
00000160: 6424 80bc 546b 313c 16ee 9d3c 4518 493d
00000170: 5e96 4a3d 7196 b23c 10ca e03c 8257 10bb
00000180: 146d 3d3b f39f 45ba f746 343d 8b76 f93b
00000190: d1db 523b e000 073b 9ace 9e3b 5c20 2d3d
000001a0: 7993 1a3c 174d 8c3c 6ad5 253c 7eab 293c
000001b0: 4b29 893b d880 393c 4c8a 703c fc08 ac3c
000001c0: ab0a 33bc 9ae4 8d3c 4d35 983c a646 07bc
000001d0: d704 463c c430 8e3b 49ea b93c 04a7 783c
000001e0: 9e73 f73a dde5 b93b ecc9 88bc 27f8 2e3c
000001f0: d58a 13bd 4d0f cc3c ff69 103d 22d8 4bbc
0.024414588 0.030255457 0.021819966 -0.009970869 0.013467515 0.008079706 0.011570925 0.0076725925
-0.024036603 0.0072490806 0.014656608 0.024644142 0.0082186535 0.00015970954 -0.001261961 0.045185678
0.024259152 -0.032404616 0.020596193 0.016719418 0.014875386 0.015214884 0.008413667 0.018037962
0.044757605 0.028715653 0.01855338 0.022204008 0.01653141 -0.0036930884 0.03671289 0.018653544
0.029045839 -0.010441311 0.048082676 0.009015443 0.008999954 0.010749294 0.034632254 0.048313677
-0.0134584 0.0026316515 -0.009038623 -0.0047951983 0.0025335932 0.018444845 -0.020430177 0.012253243
0.053471465 0.010621948 0.011391672 -0.04304718 -0.005717402 0.030110016 -0.0018070918 0.0021540136
0.02319873 -0.004660918 0.041352935 0.025358336 0.05222593 0.024894238 0.026254145 0.009855203
0.031165207 0.010084249 0.0018250853 0.041627694 0.011944078 0.021818029 -0.013463682 0.007839132
0.014707635 0.004704546 0.022263056 -0.014465301 -0.009375071 0.022871576 -0.0060226214 0.01944149
0.008982177 0.028024185 0.028150668 0.0033889606 0.03261323 0.003077886 0.038081493 -0.0029476068
-0.015642352 0.010828812 0.019278567 0.04909541 0.049459808 0.021800252 0.0274401 -0.0022024815
0.0028904127 -0.0007538788 0.04401299 0.0076130084 0.0032174478 0.0020599887 0.004846406 0.04226719
0.009434574 0.017126603 0.010121683 0.010355828 0.0041858307 0.011322223 0.01468141 0.021000378
-0.010927836 0.01732092 0.018580103 -0.00825659 0.012086115 0.0043393094 0.022694724 0.015176538
0.0018879061 0.005673154 -0.016697846 0.010679281 -0.036021072 0.02490964 0.035257336 -0.012441667

network_body._body_endoder.seq_layers.2.weight f4 [128, 128]
00000000: 1abb 493e 6885 dfbb 9869 e2bc 09ce 0cbe
00000010: c771 f2bd 162f edbd 7d91 703c 976d 0d3c
00000020: c923 54bc 97bb 0d3e e4b5 59bd 2c15 3dba
00000030: ff34 adbb c83d 9a3d 8c99 4e3e 4164 0a3e
00000040: 84ed c23d b21a 0c3e d10d be3d 57fb 083d
00000050: 3ffe f43c 27e9 f53c 7aa1 763d 44f9 76bb
00000060: 3293 033d 4839 0a3e 6798 743d c5b7 2e3e
00000070: 4620 563a c49f 5c3e a8e9 fe3c 7e17 793d
00000080: a3f2 82bd 4e99 58bc bccf c93d 1f5c 623d
00000090: 7083 8abc 9dff 673c bcc1 363d c48a 203e
000000a0: 14ef b93d 6851 2c3d 9d29 b93d 6883 74bc
000000b0: da1e e13d 4a8c 9dbd 7d4f 95bd eba4 2bbd
000000c0: e487 95bd fc89 f43c 362c 1a3e d9de 373e
000000d0: 30f9 f83c 5ec6 c0bc abc6 98bc 2707 54bb
000000e0: bccc 4b3e b9e1 9bbb d206 ebbd 6545 c43d
000000f0: b540 d0bd 637c 1d3e bd64 d23d 2fe0 b63c
00000100: a036 10be aba5 f2bc 7c1c 0d3e 74a7 373d
00000110: f0a2 a1be 0557 0bbe ce79 0bbd 70a3 8c3d
00000120: 9fff d7bd 0301 21be ac6a 773c 9247 ac3c
00000130: cc31 74bd 64dc 3a3e f96d 033d 8011 e1bd
00000140: 0bb4 04bd 4e0f f83d 6314 c03d 490d d13a
00000150: 4ce0 3c3e 3ad7 9bbc f370 6dbd 5a9d b5bd
00000160: ae22 b7bd 66df dc3d 7c70 a1bd 205f 0cbe
00000170: 76bc 443e 1d28 e5bd f353 633d c2fe 80bd
00000180: 842d 853d 091e 163e df53 6d3b 28ba 63bd
00000190: d7ff fcbd 329e b13d d867 12be c2c3 05bc
000001a0: 81e8 20bd 5897 52ba 44c1 ebbd 1ae6 aa3d
000001b0: 38cf b23d 32fa 4ebd b4ad 9eb9 0877 3f3e
000001c0: 8a6c eb3c b19b bf3c a2ca 33bc e64d be3c
000001d0: 608f c7bd 2d64 b23c fbb2 e4bc 31e6 fbbc
000001e0: fe99 493d 8907 f13c b152 a13d 829a 0bbd
000001f0: 1157 98bd 6a2b 17bd 37e8 003e 1f09 353d
00000200: 5696 023e 0c4a 163d f233 ef3c 8b7d 0abd
00000210: b99a 8ebd 4f58 53bc 10f0 99be 0bc0 32bc
00000220: 65cd 833b 08af 623e ae93 543e 03ed 0c3c
00000230: 123e c23c e12c afbd cd24 85bc 45d8 a2bd
00000240: d1b9 5cbb 8e63 acbd fe7e 4e3d 6176 4b3e
00000250: e3e2 99bc 74f9 9a3d ca2d 27be 58df 953d
00000260: 3131 933d 7dc5 ba3d 5e65 2e3c e2ce 22bd
00000270: 2ee8 743d 3322 f3bd d2aa 633d de3b d53d
00000280: b805 32bd 18bb 8d3d bc34 293e ecb1 17bd
00000290: 540b b2bd ed9b 37be c139 c93d 202f 91bc
000002a0: 8f49 23be 328b ccbb 5f18 763a e4d5 f3bc
000002b0: 792e a7bd 2f41 f3bc 40af 8f3d bb1b 1d3c
000002c0: 19a8 8bbe 2c2b 2bbd 6723 56bd acd4 21be
000002d0: db05 4fbd 9742 d2bc bf43 673d 14dd bbbc
000002e0: 29b2 fb3c 874a d63d 351e bf3d cbda 1fbe
000002f0: 1baa c5bb 9ef8 bebc 82c7 6cbd 4f9c 283e
00000300: 378a 0abe 1f89 f63c 6719 f53d e759 9abd
00000310: b4c3 34bc 1a72 b03d 0787 6abc 30d4 1f3d
00000320: cb15 c63d 91d0 74be 52b2 613c 58e5 243e
00000330: ab1c 803c 325f b83d 34ee 933c 2b2c 29be
00000340: 1700 1b3b 3dba a13d dc0f 203e 291d 5bbd
00000350: f6c6 ea3d b1a5 963c 7ab5 d7bb 4fa7 2e3d
00000360: 2718 0cbe a2ab a63c 3b81 963d 1a6d a53d
00000370: f706 d8bd f69d 3e3e ac71 99ba f1e6 80bd
00000380: 7d4a 0ebe 430e 5fbd ef0f 453c ad03 24bd
00000390: 1bfa 2fbe 3f8a 57bd fe4d 423d 4050 39bb
000003a0: be1c 223e 0625 673a e271 1f3d 67eb b3bd
000003b0: c758 aebd d440 c03c f01e 8fbd 15e9 693d
000003c0: ec6a 433d 783c 823c d81f 44bc a98e 5cbd
000003d0: 520b 073d 1dd5 233e 62ca 15be 003e fc3d
000003e0: 3cf2 d0bd 8937 823d 443e 1fbe 07e9 d43c
000003f0: b529 833d 9c0e 103e 096b 11be f8a8 8b3c
0.1970028 -0.006821323 -0.027638242 -0.13750471 -0.118381076 -0.115812466 0.014683125 0.008632085
-0.012947985 0.13841091 -0.05315198 -0.00072129327 -0.0052858586 0.07531315 0.20175761 0.13514806
0.09517959 0.13682058 0.09279979 0.03344282 0.02990639 0.030018402 0.06021259 -0.0037685195
0.0321228 0.13498414 0.059715655 0.1706229 0.0008168261 0.21545321 0.031117275 0.06081342
-0.063939355 -0.013220144 0.09854075 0.055263635 -0.016908377 0.014160064 0.044618353 0.15677935
0.09078804 0.042069823 0.0904114 -0.014923908 0.109922126 -0.07692774 -0.07290552 -0.041905325
-0.0730131 0.029850952 0.15055928 0.17956103 0.03039226 -0.023532089 -0.01864942 -0.0032352896
0.19902319 -0.004757133 -0.1147591 0.095835485 -0.10168592 0.15379481 0.102731206 0.022323696
-0.14083338 -0.029620012 0.13780397 0.04483743 -0.31569624 -0.13607414 -0.03405171 0.06867111
-0.10546803 -0.15723042 0.015101116 0.021030221 -0.059617803 0.18248135 0.0320873 -0.10989666
-0.032398265 0.12112294 0.093788885 0.0015949394 0.18444937 -0.019023526 -0.057969045 -0.08867903
-0.089421615 0.10784797 -0.07882783 -0.13708162 0.19212517 -0.111892916 0.055499982 -0.06298591
0.06502822 0.14659895 0.003621332 -0.055597454 -0.12353485 0.086727515 -0.14297426 -0.008164348
-0.039284233 -0.0008033416 -0.11511472 0.0834467 0.0873093 -0.050531574 -0.00030265527 0.1869775
0.028738279 0.02338967 -0.010973604 0.023230504 -0.097441435 0.021776283 -0.027917376 -0.030749412
0.049219124 0.029422538 0.078771 -0.034082897 -0.074384816 -0.036906637 0.12588583 0.04419815
0.12752661 0.03669171 0.029199574 -0.033811133 -0.06963105 -0.012899472 -0.30065966 -0.010910044
0.0040222877 0.22137082 0.2075946 0.00860143 0.023711238 -0.08553482 -0.0162529 -0.079514064
-0.003368009 -0.08417426 0.050414078 0.19869377 -0.018784946 0.07567111 -0.16326061 0.0731799
0.07187117 0.09119699 0.010644285 -0.03974808 0.059791736 -0.11871757 0.05558283 0.104118094
-0.043462485 0.06920451 0.16524023 -0.037034914 -0.08693567 -0.17930575 0.09825469 -0.017722666
-0.15946029 -0.0062421793 0.0009387787 -0.029765077 -0.08163161 -0.029694168 0.07015848 0.009589131
-0.27276686 -0.04178922 -0.052279856 -0.15803784 -0.050542694 -0.025666518 0.056461092 -0.022932567
0.030724602 0.10463434 0.093319334 -0.15610807 -0.006032241 -0.02331191 -0.057807453 0.16465877
-0.13529287 0.030094681 0.11967736 -0.07536679 -0.011032987 0.08615513 -0.01431442 0.039020717
0.096721254 -0.23907687 0.013775425 0.16103113 0.01563867 0.09002532 0.01805792 -0.16520755
0.0023651177 0.0789685 0.1563105 -0.053494606 0.1146373 0.018389555 -0.006582913 0.042640027
-0.13681088 0.020345513 0.073488675 0.0807745 -0.105482034 0.18614945 -0.001170685 -0.062940486
-0.13895603 -0.05445696 0.012027725 -0.040042568 -0.17185251 -0.052622076 0.04743766 -0.0028276592
0.15831277 0.00088174676 0.038926966 -0.08785134 -0.08513027 0.023468412 -0.06988323 0.05710705
0.04770939 0.015897974 -0.011970483 -0.05384699 0.03296978 0.15999265 -0.14627984 0.12316513
-0.102024525 0.06358249 -0.15551096 0.025990022 0.06404439 0.14068073 -0.14200987 0.017048344

network_body._body_endoder.seq_layers.2.bias f4 [128]
00000000: 6824 8f3b 9e91 ba3c 504a 413d 55ef 3b3b
00000010: 6aaa fa3c a419 d93c 08a3 173c 07a1 2fba
00000020: 2201 6a3c 681b 06ba b8eb 16ba 25fa e93b
00000030: d455 cf3c 7353 58bb f047 b23b eb68 953b
00000040: 823b 823b e9d1 9b3c d1ae c6b9 ed4a 0d3c
00000050: 949a 203b f2f8 2b3b 618c 873c 7147 2abb
00000060: f291 523d 3a85 15bb 2338 233b 1164 023d
00000070: f2ed bd3c ae48 a9bc 9399 94bb 472a a83c
00000080: d75b 993b f966 3ebc 87f9 243c 9e4d 053d
00000090: 6644 c0bc cddf c83a 7f2b 983c 5da5 123d
000000a0: 507b d83c 55f5 2abc ee2b f33a 8325 463c
000000b0: 9e05 cc3b 5095 eb3c 2a53 3f3b 3eff 443c
000000c0: ba9b 3d3c 2f07 32bc 3e34 f13c bcfd 9b3a
000000d0: 9b26 66bb 286c 3b3d ac13 8ebb bcc7 d53c
000000e0: 2ff7 2b3c 04ae e1ba 1d2d e93a 9e7a 883c
000000f0: cd57 943c 84db c73c e005 4e3a 820f 383c
00000100: 759b 093c 3611 fe3c b912 4c3a d4c1 1f3c
00000110: 49e4 393c dc65 ae3c faf2 e83b 14f1 283c
00000120: 8861 683a 8f14 5cbb 8dfb 373b ba97 8eb9
00000130: a726 423c e44d 0e3d c11b f03b 6ebb c13b
00000140: 88d5 b23b 7e33 a63c 2308 0e3b 9361 f6bb
00000150: f124 0b3c 3167 403b 838e 0b3c db37 94ba
00000160: f71b 353b 1981 74bb c805 a63c 0632 9dbb
00000170: 7ce3 95bc 0142 853c df8d d93b 5d99 883b
00000180: ef57 503c c835 183c 201e 03bc de65 0d3c
00000190: c34f cb3b 6ea0 363c eb80 9f3b fe07 efbc
000001a0: fcb4 9ebb be79 9fbb a0c9 533c 3e5f fa3c
000001b0: 0eb5 023d e314 d73a 2330 b93b 7330 1a3d
000001c0: 67d6 b23c 99a3 f13b d921 533b f76d 4fbc
000001d0: 597f a1bc af75 c53a 99fe 193d 62c3 4fbc
000001e0: 1734 0aba e425 133c 3320 c3bc 34b0 a03b
000001f0: fccf 993c b3af 843b 00cb d63b 3482 1abb
0.0043683536 0.022774514 0.04719001 0.0028676589 0.030598838 0.026501484 0.009255178 -0.0006699715
0.014282497 -0.0005115778 -0.0005757171 0.0071404153 0.02530948 -0.0033008724 0.0054407045 0.0045596263
0.003974379 0.019020991 -0.0003789575 0.008623821 0.0024506198 0.0026240912 0.01654643 -0.0025982524
0.051408716 -0.0022815005 0.0024905286 0.031833712 0.02318475 -0.02066454 -0.004534909 0.020527972
0.0046801376 -0.01162123 0.010069258 0.032544725 -0.023470115 0.0015325487 0.018575428 0.035802234
0.026425987 -0.010434468 0.0018552521 0.012093904 0.0062262556 0.028757721 0.0029193857 0.012023745
0.011572773 -0.0108659705 0.029443856 0.001190118 -0.0035118225 0.045757443 -0.004335841 0.026096217
0.010495945 -0.0017217998 0.0017789934 0.01666003 0.018108273 0.024396665 0.0007859152 0.011234166
0.00839888 0.031014066 0.00077847723 0.009750802 0.011345931 0.021288805 0.007109043 0.010311384
0.0008864631 -0.003358159 0.002807352 -0.00027197396 0.011850036 0.03474225 0.0073275273 0.005912236
0.005457584 0.020288225 0.002167233 -0.007518956 0.008492694 0.0029358382 0.008517864 -0.001130815
0.0027635077 -0.0037308394 0.020266429 -0.004797223 -0.01829695 0.016266825 0.006639227 0.004168673
0.0127162775 0.009290166 -0.008002788 0.008630244 0.0062045767 0.011146648 0.004867663 -0.029178616
-0.0048433524 -0.0048668077 0.012926489 0.030562993 0.03191095 0.0016409423 0.0056514903 0.03764386
0.02183075 0.0073742387 0.003221622 -0.012660495 -0.019714044 0.001506498 0.03759632 -0.01268086
-0.0005272044 0.008981202 -0.023819065 0.0049038175 0.018775932 0.0040492653 0.006554961 -0.0023576142

action_model._continuous_distribution.log_sigma f4 [1, 2]
00000000: 7f36 58bc b53a cf38
-0.013196587 9.881464e-05

action_model._continuous_distribution.mu.weight f4 [2, 128]
00000000: 2df8 ed3c 14df 0abd 22b2 f6bc 67ee 9d3c
00000010: 394b 4e3c d507 05bd 3e63 10bb dbe1 173d
00000020: 027a b3bb f3d9 3abc e145 11bd f0a2 8e3c
00000030: a3e7 1ebd d2d4 76bc 983b 6c3c 882a 093d
00000040: 3021 ee3c 6eb7 79bc 8ca9 553c ac95 28b9
00000050: 21ba 7a3c b080 e93c f1bc 143c b88c ef3b
00000060: efc0 40bd a7f8 5fbb 1051 e13c f1dc 5abd
00000070: c4c6 a63d 2701 b13b 8e9f 373b 7884 d1bc
00000080: b0fe 443c 222b 9fbc f6ef 1ebc 647b cf3a
00000090: 0e82 163c 9c1d d7bc 7e1b acbc 3b78 063d
000000a0: b51c 4abd 80e9 3e3c b72a bbbc fe39 88bc
000000b0: 104f fabb 0f61 3d3c 16de 10bd 5c9a 8bbb
000000c0: 1b13 893a afc2 e13a d5cc 493d 261f 0f3c
000000d0: 5355 d1ba cbeb 43bd 4ae1 213c c046 3d3c
000000e0: fd08 0a3d 8b5d 35bc 4573 203d 12b5 24bd
000000f0: 51ff 0b3d 4117 733b 14b8 2f3d 03bc b73c
00000100: 394c 863a 28aa fcbc 050d b53c 7484 0fbc
00000110: 320b 093d 7d6e 30bd cb17 c3bc 3a07 7f3d
00000120: e5ba f53c 4ee4 66bc 8780 9ebc 65e2 463c
00000130: 78b2 403c 02a0 58bd d713 b63c 1669 833c
00000140: be61 8b3c cb08 c53c 11c3 583c df71 3abb
00000150: 170d 393d 9720 d7bc 6ba8 7dbc 8fb7 64bb
00000160: ab29 ce3c 30b7 e5bc 8601 b23c bdb0 073c
00000170: 2d2e b63c 019e 833c c806 9fbc 9e25 0b3c
00000180: 3060 a73b 5c8d a23b 2635 8a3c 5ad3 3e3d
00000190: 0f74 f43b 28ac 5bbd cc6c 223b 106a a5b9
000001a0: 9c76 31bc 3015 42bb 6a1a 083d b19c c33c
000001b0: f5d4 86bd 12d8 8abc 2ba0 ab3c ff9a c63c
000001c0: b935 60bb 8817 d9bc 2d5f 0d3d be5b d13b
000001d0: 5b14 09ba 875e cdbc fb0a 713c 1e07 f9bc
000001e0: 2e70 d73c 0ca5 8abc d470 97bc b5ea e13a
000001f0: 6a41 2f3c 94ec a3bc 9a88 24bd 67eb 63bc
00000200: ba62 b9bc 192f 63bd 3605 0d3d f681 873c
00000210: 9af2 4b3d f40b 0d3c 7ddb c33c ee16 b4bb
00000220: 2e03 7c3c 93b8 10bd ee53 2fbb f8f6 26bd
00000230: 4a58 023d 14dc 85bb 2eb3 7bbc fa30 5dbc
00000240: a6ec dd3b 7d1c 543c b5ba 89bb 0fd5 883b
00000250: 5ee3 be3c 17eb bbbc 7b3c 20bd bbbd b7bd
00000260: ddbd 393d 0112 1abd f54c 91bc a604 933a
00000270: 6c92 4a3d 8534 12bc 1ab4 3a3c 0c5f 973b
00000280: 53e3 ef3b bb2a 46bb 5fd5 0e3d 471e 253d
00000290: 32a2 343b efe2 9abc 3dbc 163d 28de 583d
000002a0: 0d27 ee3b d0b9 afbb 4f56 1ebc 5a56 8c3c
000002b0: 4036 ea3b b906 3a3d 56d0 423b 8f44 173d
000002c0: 6ca4 02bd 69a0 4fbd c3f6 4b3d 7342 083d
000002d0: 0e33 1ebd 81f9 fd3b 6ff0 643b 6f47 343d
000002e0: a9b9 b3bb 971b 8f3b 6544 583a f01f 5abc
000002f0: 1176 d3bc b778 233d 4666 dbbc e43a a33c
00000300: 84b1 7fbd 5055 3a3d 5a5a 72bd 9ed8 8c3c
00000310: e9f8 43bc 6160 92bc 904c 54bb 59fb 1ebd
00000320: 3bb6 07bd b511 f43b da83 773c 273f e0bc
00000330: d3e9 123d 083c 0dbd aa7b 4f3b 54cb abbc
00000340: e2bf d9bc ca9c 2f3d 96c1 6cbd 9875 03bd
00000350: fafa 1a3b cdd9 33bc 24cb e93c 5cfb 8abc
00000360: c4f8 203d 9871 babc ecef 093d bb86 a5bd
00000370: 3dca b639 b217 fd3b 1d1d 903b e7f8 343c
00000380: 8727 b53c 5449 e83c 18f4 b0bc 4a9e ec3b
00000390: 9025 86bc 9fb1 993c eda9 b73b eed2 f4bb
000003a0: 73a5 a0bc df31 14bd f9a2 52bd c58e df3c
000003b0: bad7 0bbd cff4 0abd c178 ce3b 2ca8 103d
000003c0: 9f43 093d 1671 d6bc 945b 3a3c 910a d0bc
000003d0: ab70 70bb e16d 23bd 5d94 403d a6b3 cfbc
000003e0: 9de2 0d3c e542 4cbd 5df0 d4bb 9aae e63b
000003f0: fa7c 053d 8f03 a8bc 1e6e 21ba c669 b6bc
0.029049003 -0.03390415 -0.030114237 0.019278718 0.012591177 -0.032478172 -0.002203181 0.037080627
-0.005477191 -0.011404502 -0.035467032 0.017411679 -0.038795125 -0.015065389 0.014418505 0.033487827
0.02906856 -0.015241487 0.013040911 -0.00016077486 0.015303166 0.028503746 0.00907825 0.007310476
-0.047058996 -0.0034175308 0.027504474 -0.053433362 0.0814338 0.0054017487 0.0028018686 -0.025575861
0.012023613 -0.019429747 -0.009700766 0.001582962 0.009186281 -0.026259236 -0.021009203 0.032829504
-0.049343783 0.01165235 -0.022847516 -0.016629215 -0.0076388195 0.011558785 -0.035368048 -0.0042603444
0.0010457964 0.0017224158 0.04926761 0.008735454 -0.0015970863 -0.04783229 0.009880373 0.011552513
0.03369998 -0.011069666 0.03917243 -0.040211745 0.034179036 0.0037092718 0.04290016 0.022428518
0.0010246105 -0.030842856 0.022100935 -0.008759607 0.033457942 -0.04307412 -0.023815056 0.06226275
0.029996345 -0.014092518 -0.019348396 0.012138938 0.0117613 -0.05288697 0.022226257 0.01604132
0.01701438 0.024052044 0.013230101 -0.002844922 0.0451785 -0.026260657 -0.0154820485 -0.0034899449
0.025166353 -0.028041452 0.021729242 0.008281884 0.022238815 0.016066553 -0.019412413 0.008492855
0.005107902 0.004960699 0.016871046 0.04658828 0.0074601243 -0.053630978 0.0024784086 -0.00031550275
-0.010831501 -0.002961468 0.033228315 0.023878427 -0.06583587 -0.016948733 0.020950397 0.02424383
-0.0034211709 -0.026500478 0.034514595 0.0063891103 -0.00052291685 -0.025069488 0.014712091 -0.030398902
0.026298609 -0.016924404 -0.018486418 0.0017236086 0.010696748 -0.02001027 -0.040169336 -0.013911105
-0.022630084 -0.055464838 0.034428798 0.016541462 0.04979191 0.008608807 0.023908371 -0.0054958975
0.0153816175 -0.035332274 -0.0026752907 -0.04076287 0.03182248 -0.0040850732 -0.015362544 -0.013500446
0.0067725955 0.012946245 -0.0042031654 0.004175789 0.023301776 -0.022939248 -0.03912018 -0.08971735
0.045347083 -0.037614826 -0.017736891 0.0011216595 0.049456045 -0.008923654 0.011395479 0.004619485
0.0073208003 -0.0030237872 0.034871455 0.040312078 0.0027562496 -0.018907038 0.03680061 0.05294624
0.007267839 -0.0053627267 -0.009664132 0.01713102 0.0071475804 0.045416567 0.0029726229 0.036930617
-0.031895086 -0.05069009 0.049795877 0.033266496 -0.03862291 0.0077506904 0.0034933349 0.044013437
-0.005484779 0.0043673026 0.00082499377 -0.013313279 -0.025813134 0.039910045 -0.026782166 0.019925542
-0.06242515 0.045491517 -0.059168197 0.017193135 -0.0119612 -0.017868223 -0.0032394268 -0.038813923
-0.033132773 0.0074484 0.015107119 -0.027373863 0.035867523 -0.03448108 0.0031659403 -0.020970978
-0.026580755 0.042874135 -0.057801805 -0.032094568 0.002364813 -0.010977221 0.028539248 -0.01696556
0.03929974 -0.022759244 0.033676073 -0.080823384 0.00034864424 0.007723772 0.004398002 0.011045671
0.022113575 0.028355278 -0.021600768 0.007221018 -0.016375333 0.018761454 0.0056049735 -0.007471434
-0.019610142 -0.036180373 -0.051424954 0.027289758 -0.03414128 -0.033924874 0.006301016 0.03531663
0.033511754 -0.02617697 0.011374373 -0.025395663 -0.003668825 -0.03989971 0.04701649 -0.025354218
0.008659986 -0.049868483 -0.00649838 0.007039857 0.03258989 -0.02050951 -0.00061580713 -0.022267234

action_model._continuous_distribution.mu.bias f4 [2]
00000000: 23e0 b8ba 4901 583c
-0.0014104884 0.0131839
