Assets/Models/MoveToGoal-latest.onnx (onnx, 78879 bytes, 9 tensors)

discrete_act_size_vector f4 [1, 2]
0	0x40400000	3.0
1	0x40400000	3.0

network_body._body_endoder.seq_layers.0.weight f4 [128, 10]
0	0x3f157d1c	0.58394027
1	0x3ee2f430	0.44326925
2	0x3efd97c1	0.49529842
3	0xbedaf1ef	-0.42762706
4	0xbe43490f	-0.19070838
5	0xbe3dd728	-0.18539107
6	0x3eba7156	0.36414593
7	0x3d332491	0.043736044
8	0xbe573ccd	-0.21019287
9	0xbe808e49	-0.25108555
10	0xbd876dab	-0.066127144
11	0x3eb9d78a	0.36297256
12	0x3c63a9d3	0.01389547
13	0xbdce2db4	-0.10067311
14	0xbdf4c649	-0.119518824
15	0xbeb616ca	-0.35564262
16	0x3e7ba991	0.24576403
17	0x3f334e33	0.700412
18	0x3e9b888b	0.30377612
19	0xbe20be04	-0.15697485
20	0xbd70608b	-0.05868582
21	0xbddb55de	-0.10709737
22	0x3d97ad9b	0.074061595
23	0x3f3a0d0a	0.72676146
24	0x3f362299	0.7114654
25	0xbeacd172	-0.33753544
26	0xbea0aaa7	-0.31380197
27	0xbe09f4db	-0.13472311
28	0xbe21035c	-0.15723938
29	0xbd811862	-0.06303479
30	0x3d245fb5	0.040130336
31	0x3e88a950	0.26691675
32	0xbecf5a4c	-0.4049858
33	0xbf011ef3	-0.5043785
34	0xbda0ecce	-0.07857667
35	0x3d313ed3	0.043272804
36	0xbedc18c8	-0.42987657
37	0xbe16ffbe	-0.14745995
38	0x3eeb6a70	0.45979643
39	0xbe903810	-0.28167772
40	0x3cf395be	0.029734489
41	0xbf0ef71b	-0.55845803
42	0x3eacd401	0.33755496
43	0x3e379f62	0.17931893
44	0x3ca0e265	0.019639203
45	0x3db260e2	0.08709885
46	0x3e93bdfb	0.2885588
47	0x3e4024f1	0.18764092
48	0xbe7ff8fc	-0.24997324
49	0x3daeeb61	0.08540989
50	0x3e9e79d0	0.3095231
51	0x3f22c149	0.6357618
52	0x3e8b733f	0.27236363
53	0x3dfe6235	0.12421075
54	0x3e4c9fa6	0.19982776
55	0x3dfb7db7	0.122798376
56	0x3ea81b3f	0.32833287
57	0xbf3f7043	-0.7478067
58	0xbe3a0993	-0.18167715
59	0xbdf528b4	-0.11970654
60	0xbec9db56	-0.39425153
61	0x3dce5587	0.10074907
62	0x3e8cf84c	0.27533185
63	0xbec5665c	-0.38554657
64	0x3ecda5e5	0.4016563
65	0x3e396d84	0.18108183
66	0xbf1d1fc4	-0.61376595
67	0xbe8bc6cb	-0.27300104
68	0x3efb452a	0.49076205
69	0xbf0f8028	-0.56054926
70	0x3dbd809b	0.09253045
71	0x3d4db9c0	0.050225973
72	0x3e3c8fbf	0.1841421
73	0x3f107277	0.5642466
74	0xbeaae83a	-0.333803
75	0x3d869f5d	0.06573365
76	0xbe8f5a33	-0.27998504
77	0x3e3fa838	0.18716514
78	0x3ba92654	0.00516204
79	0x3e0f4121	0.13989688
80	0x3eff8137	0.4990327
81	0xbd7f3006	-0.062301658
82	0xbf067ca3	-0.5253393
83	0xbe01c32a	-0.12672105
84	0x3f1253e1	0.5715924
85	0xbdb159ad	-0.086596824
86	0x3e48e2f0	0.1961782
87	0xbe7025a8	-0.23451865
88	0x3ebd75f5	0.37004057
89	0xbe4186de	-0.18899104
90	0xbeed9f5a	-0.46410638
91	0x3e7c2905	0.24625023
92	0xbf12a302	-0.5727998
93	0x3eb923cb	0.3616012
94	0xbefbce8c	-0.4918102
95	0xbdd95b42	-0.10613109
96	0xbde0f675	-0.10984508
97	0x3e30cd16	0.17265734
98	0x3e6c1f26	0.23058757
99	0x3c1469a0	0.009058386
100	0x3e5a5a5a	0.21323529
101	0x3e7706e1	0.24123718
102	0x3d1d076a	0.03833715
103	0x3e0acfe5	0.13555868
104	0xbe923631	-0.2855697
105	0xbf104570	-0.56355953
106	0x3b9aca9d	0.0047238604
107	0xbdbec934	-0.0931572
108	0x3e0cbb35	0.13743289
109	0x3e9ad284	0.30238736
110	0x3ce42445	0.027849326
111	0xbe166d29	-0.14690079
112	0xbe8f7aa4	-0.28023255
113	0x3ed3202b	0.4123548
114	0x3dc871a5	0.09787301
115	0xbc9bd37c	-0.019021742
116	0x3f06c720	0.5264759
117	0xbe879187	-0.26478216
118	0xbc1852e2	-0.009297105
119	0x3dbf753e	0.09348534
120	0x3e5f6b7a	0.21818343
121	0xbf593fe9	-0.84863144
122	0x3e8a26a5	0.26982608
123	0x3f158cd8	0.58418036
124	0x3e489088	0.19586384
125	0xbd475015	-0.048660357
126	0x3ebfd89a	0.3746994
127	0xbe056572	-0.1302698
128	0xbd18ee0a	-0.037336387
129	0xbda92f2c	-0.082609504
130	0xbf2c44a3	-0.6729223
131	0xbeccafbb	-0.39977822
132	0x3e1abbaa	0.1511065
133	0x3eb5f4f9	0.35538462
134	0x3dfa5158	0.12222546
135	0xbd6b8894	-0.057503298
136	0x3e2868f2	0.16446283
137	0x3ec00776	0.37505692
138	0xbe60ab6f	-0.21940397
139	0xbe8a112d	-0.2696623
140	0xbe8bedb7	-0.273298
141	0xbda43efc	-0.08019826
142	0x3eb6427e	0.35597605
143	0xbf3ee1f7	-0.74563545
144	0x3ec31782	0.38103873
145	0x3e973944	0.29535878
146	0xbe5dbeab	-0.21654765
147	0x3e101899	0.14071883
148	0xbc8fd99e	-0.017559823
149	0xbeaf0674	-0.3418461
150	0x3d672388	0.05643037
151	0xbe533290	-0.20624757
152	0xbcd69716	-0.02619509
153	0x3eaa7511	0.3329244
154	0xbed74bac	-0.4204992
155	0xbe8da497	-0.27664635
156	0x3e4bed0f	0.1991465
157	0xbe2533be	-0.1613302
158	0xbed1e18a	-0.40992385
159	0xbe9ca4e8	-0.30594563
160	0xbf0da640	-0.553318
161	0xbc122365	-0.0089195715
162	0x3f28e562	0.6597501
163	0x3e35979f	0.1773362
164	0xbdabd730	-0.08390653
165	0x3e3eb055	0.18621953
166	0x3ec2db49	0.38057926
167	0x3d28b409	0.04118732
168	0xbf33c6f8	-0.7022548
169	0x3ed105ab	0.40824637
170	0x3e95226f	0.29127833
171	0x3e2b4fa8	0.16729605
172	0xbde31d1b	-0.11089536
173	0x3ce66529	0.028124409
174	0x3ebfc06a	0.37451488
175	0x3ed76a8e	0.42073482
176	0x3edf7b22	0.4364863
177	0x3f038eb4	0.5138962
178	0xbe3927ac	-0.1808154
179	0x3e1c96b8	0.1529187
180	0xbe071b4b	-0.13194005
181	0xbe8a7999	-0.27045897
182	0x3e8dd845	0.27704063
183	0xbf2ef66b	-0.68344754
184	0xbe292633	-0.16518478
185	0x3ec86def	0.39146373
186	0xbf1c9051	-0.6115771
187	0xbe7350f7	-0.23761354
188	0x3dcbb814	0.099472195
189	0x3e8c12fe	0.2735824
190	0x3e9cfcc5	0.30661598
191	0x3e031a9b	0.12803118
192	0x3d976c47	0.07393699
193	0x39dc9407	0.0004207196
194	0xbe0f275f	-0.13979863
195	0xbf4867a2	-0.7828313
196	0xbed096f5	-0.4074017
197	0xbed72aca	-0.42024833
198	0xbece5487	-0.40298864
199	0x3e498590	0.19679856
200	0x3d02f867	0.031975176
201	0x3e4aba43	0.19797616
202	0x3d2b1432	0.041767307
203	0x3ed952eb	0.42446074
204	0xbd17cc0f	-0.03705984
205	0xbe35a4ca	-0.17738643
206	0xbe262d44	-0.16228205
207	0x3df5d37f	0.1200323
208	0xbf2f24b3	-0.68415374
209	0x3e3a1502	0.18172076
210	0xbea0f5ef	-0.31437632
211	0x3de51459	0.11185522
212	0xbd98f409	-0.07468421
213	0xbea87ca6	-0.329076
214	0x3f195c09	0.5990606
215	0xbef973d1	-0.48721173
216	0xbc295829	-0.01033596
217	0x3b7207c4	0.0036930898
218	0xbeb47a80	-0.3524971
219	0x3e9d31f8	0.30702186
220	0x3e21d439	0.15803613
221	0xbebcfac3	-0.36910066
222	0x3edd25c4	0.43192875
223	0xbcee4019	-0.029083299
224	0xbef60172	-0.48047978
225	0x3e068704	0.13137442
226	0xbf1d4ea4	-0.6144812
227	0xbe002a74	-0.12516195
228	0xbf240156	-0.6406454
229	0x3e3a5201	0.18195345
230	0xbd219151	-0.039445225
231	0xbec87210	-0.39149523
232	0x3c02d24b	0.007984708
233	0x3da1963b	0.07889982
234	0xbeb2925d	-0.3487729
235	0xbd5865cb	-0.052831452
236	0x3e01891c	0.1264996
237	0xbe4de685	-0.20107467
238	0xbe595070	-0.2122209
239	0x3c6e04ce	0.014527513
240	0xbcf2da3d	-0.02964508
241	0xbe0ea15e	-0.13928744
242	0x3ef6ce26	0.48204154
243	0xbec1cae8	-0.37850118
244	0xbd88db2e	-0.0668243
245	0xbd41f480	-0.047352314
246	0x3d46848f	0.04846626
247	0xbebfa107	-0.37427542
248	0xbddb51dc	-0.10708973
249	0x3dcbe8d6	0.09956519
250	0xbedf05bb	-0.4355906
251	0x3f2b4a00	0.6690979
252	0x3ed08795	0.4072844
253	0xbddd517b	-0.10806557
254	0x3ea363c0	0.3191204
255	0x3e7c2df4	0.24626905

network_body._body_endoder.seq_layers.0.bias f4 [128]
0	0x3d624226	0.055238865
1	0x3c7ac1b7	0.015304974
2	0x3bb931ba	0.00565168
3	0x3cbb9d0b	0.022902032
4	0x3d30e5be	0.04318785
5	0xbb812365	-0.003940987
6	0x3d0a64bd	0.033787478
7	0x3d0f90bb	0.035050135
8	0x3c85091b	0.016239693
9	0x3d58de43	0.05294634
10	0x3c388d1b	0.011264111
11	0x3ce4ccb2	0.027929638
12	0x3cd5167b	0.026011696
13	0x3d4aab13	0.049479555
14	0x3cfaab09	0.030599134
15	0xbba85956	-0.005137603
16	0x3ce7ce0d	0.028296495
17	0x3cf975a8	0.03045161
18	0x3d241dba	0.040067412
19	0xbb11d421	-0.0022251683
20	0x3c86b568	0.016443923
21	0x3c8ca679	0.017169224
22	0xbcb82a00	-0.022480965
23	0x3cbb96e2	0.022899095
24	0x3d0fbdd0	0.03509313
25	0x3c7934ff	0.015210389
26	0x3d40365d	0.046926845
27	0x3d2550b3	0.040360164
28	0x3d4db5e3	0.05022229
29	0xbc7fa247	-0.015602655
30	0xbcfcb8d4	-0.030849852
31	0x3d50eb2b	0.051005524
32	0x3be35f56	0.006938855
33	0xbd4486bf	-0.047980066
34	0x3d084b94	0.033275202
35	0x3c86df9d	0.016464049
36	0x3c1fa2c1	0.009743393
37	0xba51b9d0	-0.00080004055
38	0x3c7cbc36	0.015425732
39	0x3d398e26	0.04530158
40	0x3c500cef	0.012698396
41	0x3cf1de03	0.029524809
42	0x3c1ac6f0	0.009446844
43	0x3d495a53	0.049158406
44	0x3cc03b7e	0.023465868
45	0x3ca34d6c	0.019934379
46	0x3d6a0fc4	0.05714394
47	0x3b86e271	0.0041163494
48	0x3d7442d0	0.05963403
49	0x3ae108d0	0.0017168764
50	0x3ca47a9d	0.020077998
51	0x3cbef1ea	0.023308713
52	0x3d455c5b	0.04818378
53	0x3d24310d	0.04008584
54	0x3cee4066	0.029083442
55	0x3a97b822	0.0011575262
56	0x3c8b8579	0.017031418
57	0x3cc53e1d	0.02407747
58	0xbc6dadb8	-0.01450675
59	0x3cabbc58	0.020963833
60	0x3cfa7890	0.030575067
61	0x3c4bad5b	0.012431468
62	0x3c6281b8	0.013824873
63	0x3d5ff2ab	0.054674786
64	0x3c89e4b5	0.016832689
65	0x3b24f142	0.0025168215
66	0x3c63d3e9	0.013905504
67	0x3c85c2f4	0.016328312
68	0x3c9b4372	0.018953059
69	0x3d6f0817	0.058357324
70	0x3d956cb1	0.07296122
71	0x3c3eda8b	0.011648784
72	0x3d2e5229	0.042558823
73	0x3c0fded9	0.008781158
74	0x3c19db38	0.009390645
75	0x3d67b31e	0.056567304
76	0x3ceddfd6	0.029037397
77	0xbaf18a5c	-0.0018428075
78	0x3c5ae9cd	0.0133614065
79	0xbc38940e	-0.011265768
80	0xbc600222	-0.0136723835
81	0x3a3366ec	0.00068436447
82	0x3cde6e94	0.027152337
83	0xbc8fd079	-0.017555462
84	0x3d4dcb3a	0.05024264
85	0x3cdf82e9	0.027284103
86	0x3c7249d3	0.014788109
87	0x3d53ed60	0.05174005
88	0x3d628819	0.055305574
89	0x3d2ce907	0.04221442
90	0x3ce4034c	0.027833603
91	0xbd0ea9f5	-0.034830052
92	0xbb3776d2	-0.0027994406
93	0x3d47cd0c	0.048779532
94	0x3d06a9c7	0.032876756
95	0x3d9a6752	0.07539238
96	0x3aba73ae	0.0014225149
97	0xbce75e39	-0.028243171
98	0xbcb20b5a	-0.021733928
99	0x3ce85bc3	0.028364068
100	0x3c117f3f	0.0088804355
101	0xbc64fece	-0.013976766
102	0x3d520ef6	0.0512838
103	0x3cf04903	0.02933169
104	0x3cb6ade4	0.022299714
105	0x3b399687	0.002831848
106	0xbcb91916	-0.02259497
107	0x3badf542	0.005308778
108	0x3c57cc87	0.013171322
109	0xbbdef2e0	-0.0068038553
110	0x3bfdaee9	0.007741798
111	0x3cfe9408	0.031076446
112	0xbb12297d	-0.002230256
113	0x3d4844e9	0.048893843
114	0x3cf3e1ff	0.02977085
115	0x3ccaca3b	0.024754634
116	0x3da2c1ee	0.079471454
117	0x3d48fe80	0.049070835
118	0xbc2a8363	-0.010407302
119	0xbb9bc0eb	-0.004753222
120	0x3c3504d7	0.011048517
121	0x3c97079d	0.018436247
122	0x3bc4061f	0.005982175
123	0x3b8c5f28	0.0042838044
124	0x3c97c431	0.018526169
125	0x3d13fbc6	0.03612878
126	0x3d685c6f	0.056728777
127	0x3ccbf471	0.024896832

network_body._body_endoder.seq_layers.2.weight f4 [128, 128]
0	0x3db9ce7f	0.09072589
1	0xbdf5967e	-0.11991595
2	0xbd12b1fc	-0.03581427
3	0xbd59f18d	-0.053208876
4	0xbcc9bea2	-0.024627034
5	0xbe4241f3	-0.1897047
6	0x3e0f088d	0.13968106
7	0x3e16fdce	0.14745256
8	0x3c971850	0.01844421
9	0x3cdd3167	0.027001096
10	0x3d36c4cb	0.04462127
11	0xbdf53b29	-0.119741745
12	0xbc9df527	-0.019281937
13	0x3b5e6e19	0.0033940135
14	0x3de61a3f	0.11235475
15	0x3d112b17	0.035441484
16	0x3da21036	0.07913248
17	0x3dd6ba2a	0.10484727
18	0x3d22001f	0.039550897
19	0xbdaf351f	-0.08555054
20	0x3d28371f	0.041068193
21	0x3bad6a72	0.0052922303
22	0xbc878916	-0.01654486
23	0x3e101562	0.14070657
24	0x3df41159	0.11917371
25	0x3d0122b7	0.031527247
26	0x3de5e1e0	0.11224723
27	0xbcf5b3b3	-0.029992914
28	0xbd9a524d	-0.07535229
29	0x3d366c70	0.044537008
30	0x3d5ef089	0.05442861
31	0x3e0f6465	0.14003141
32	0xbd635fa5	-0.055511136
33	0x3c8f4272	0.017487738
34	0x3d9ed7da	0.07756014
35	0x3da915dd	0.08256123
36	0xbda69bcb	-0.08135184
37	0x3d03055b	0.03198753
38	0xbd92645b	-0.071480475
39	0xbd53bba8	-0.051692635
40	0x3e0b81b8	0.13623703
41	0xbd0bc52e	-0.034123592
42	0xbcc9e7cc	-0.024646662
43	0x3da0a383	0.078436874
44	0x3be6fb71	0.007049017
45	0x3d34d5b1	0.044149105
46	0x3e8a97e7	0.27069017
47	0xbd1c3fe0	-0.038146853
48	0x3d465aa2	0.048426278
49	0xbd979c0d	-0.07402811
50	0x3bc02f86	0.0058650402
51	0xbe900547	-0.28129026
52	0xbd758940	-0.059945345
53	0x3dbe5f26	0.09295492
54	0x3d8ee813	0.069778584
55	0x3ca53ac5	0.020169625
56	0xbddd1803	-0.107955955
57	0xbdc8ddb1	-0.09807909
58	0xbe2e43c9	-0.17018045
59	0x3dc6645d	0.096871115
60	0xbbd155df	-0.0063884105
61	0x3dc8cbd5	0.09804503
62	0xbd8cb1fc	-0.06869885
63	0x3da13da4	0.07873085
64	0x3d321c1b	0.043483835
65	0x3db79f00	0.08965874
66	0x3d2cf5bb	0.042226534
67	0xbdb1e2c7	-0.086858325
68	0x3db49bd5	0.08818785
69	0x3cef28d5	0.029194275
70	0x3d33972a	0.043845333
71	0xbd162a39	-0.03666136
72	0x3cb58bab	0.022161325
73	0x3d9c710a	0.07638748
74	0x3d2c8f45	0.04212882
75	0x3e49f24a	0.19721332
76	0x3d91eeb1	0.07125605
77	0xbc2dd7ca	-0.01061053
78	0x3dc47312	0.095922604
79	0xbb85b429	-0.0040803147
80	0xbd2ba8e6	-0.04190912
81	0x3ce81aca	0.028333087
82	0x3df16068	0.11785966
83	0x3c28243d	0.010262546
84	0xbe093c6d	-0.13401957
85	0xbcd8e3e6	-0.026475858
86	0xbdbbb2d6	-0.091649696
87	0x3d170410	0.03686911
88	0x3e7138f9	0.2355689
89	0x3d49036b	0.049075525
90	0xbaed23d3	-0.0018092341
91	0x3e006ff9	0.12542714
92	0xbd3144ae	-0.04327839
93	0xbdb1aa99	-0.08675117
94	0x3dc1ab9f	0.09456562
95	0xbe119379	-0.14216413
96	0xbdbd4ab2	-0.092427626
97	0xbe20d482	-0.15706065
98	0x3d022743	0.031775724
99	0x3d8f588e	0.06999312
100	0x3db293b2	0.08719577
101	0x3e3f96bf	0.18709849
102	0x3d824443	0.06360676
103	0x3df9230f	0.1216489
104	0x3e0a006b	0.13476722
105	0xbdf91e97	-0.12164038
106	0x3d7dc480	0.061954975
107	0xbd58516a	-0.052812018
108	0x3d875508	0.06608015
109	0x3db540fd	0.08850286
110	0x3dc9cd95	0.09853665
111	0xbd4414cb	-0.047871392
112	0x3da15f57	0.07879513
113	0x3cc0a44f	0.023515848
114	0x3d42fe95	0.04760607
115	0xbdd7d435	-0.10538522
116	0xbc7314ac	-0.0148364715
117	0xbd164114	-0.036683157
118	0x3e1595b6	0.14607891
119	0x3df667fb	0.120315515
120	0x3d268ae9	0.04065982
121	0xbd8b8427	-0.068123154
122	0xbd1233e8	-0.035694033
123	0x3c8f66a0	0.01750499
124	0xbd5cb5f6	-0.05388447
125	0x3d5b9189	0.05360559
126	0xbc781b4e	-0.015143229
127	0xbd8be1a5	-0.06830148
128	0x3a22a23d	0.0006203985
129	0x3d5ab73b	0.0533974
130	0xbd857a41	-0.06517459
131	0x3bb5ecdd	0.005551918
132	0x3bcc3831	0.0062322845
133	0xbdbeb35a	-0.09311552
134	0xbdc95852	-0.09831299
135	0xbdf6620e	-0.12030421
136	0x3db58b70	0.08864486
137	0xbb92f931	-0.0044852723
138	0x3d02c6d9	0.031927917
139	0x3dbc9a65	0.09209136
140	0x3c906c22	0.017629687
141	0xbdd9ade7	-0.10628872
142	0x3d844c8e	0.06459914
143	0xbd3d7c18	-0.046260923
144	0xbd896970	-0.06709564
145	0xbc80158c	-0.015635274
146	0x3dca1099	0.09866447
147	0x3d7e2e0f	0.062055644
148	0x3d158925	0.036507744
149	0x3d842e66	0.06454162
150	0x3d228a4f	0.039682683
151	0x3c8e0480	0.01733613
152	0x3ddd94af	0.10819375
153	0x3dea606e	0.11444174
154	0xbdd677b9	-0.10472054
155	0x3a2e4010	0.00066471193
156	0xbdb7f2ba	-0.08981843
157	0x3d86c134	0.06579819
158	0xbbf4b7c6	-0.0074681966
159	0x3cdf0420	0.027223647
160	0xbe1c6ecb	-0.15276639
161	0xbda6163f	-0.08109712
162	0x3cd5fee9	0.026122527
163	0x3d311661	0.043234233
164	0xbe03aad8	-0.1285814
165	0x3d0ce166	0.034394644
166	0x3c1034bd	0.008801636
167	0x3db60431	0.08887518
168	0x3d8cf77f	0.06883144
169	0x3da56c82	0.08077337
170	0xbcf4a88f	-0.029865531
171	0x3c047d4d	0.008086515
172	0xbd2435d5	-0.0400904
173	0xbdf1966e	-0.1179627
174	0x3df2e228	0.11859542
175	0x3dbe6865	0.092972554
176	0x3c34c545	0.011033361
177	0x3e42f35f	0.19038151
178	0x3dfed9a2	0.12443854
179	0x3ce6d8a9	0.028179483
180	0x3e0500af	0.12988542
181	0x3dd599c6	0.104297206
182	0x3d2f7c39	0.042843077
183	0xbe16f69c	-0.14742512
184	0x3dbad4bc	0.09122607
185	0x3c673418	0.014111541
186	0x3bf7d41e	0.007563128
187	0x3dbe009e	0.092774615
188	0xbd9d504c	-0.07681331
189	0xbd4474ee	-0.047963075
190	0xbc6dde05	-0.014518266
191	0x3d1f2025	0.038849015
192	0xbd1c999b	-0.038232427
193	0xbd3fc19b	-0.046815496
194	0x3e071688	0.13192189
195	0xbe1a6060	-0.15075827
196	0x3bf18ef7	0.007371779
197	0xbe1db98a	-0.15402809
198	0xbdd69154	-0.10476938
199	0xbd172f8c	-0.03691058
200	0xbd8919dc	-0.066943854
201	0x3d05d9b2	0.032678314
202	0xbd42c83b	-0.047554236
203	0x3e239ac7	0.15977012
204	0xbd021698	-0.03175983
205	0xbd8a3552	-0.06748451
206	0x3db1b70a	0.0867749
207	0x3db2bea9	0.08727772
208	0xbd5e899e	-0.05433046
209	0x3c251d45	0.010077779
210	0xbe0ecb2c	-0.13944691
211	0x3d81b6d2	0.06333698
212	0xbd521807	-0.051292446
213	0xbd09f9b2	-0.033685394
214	0x3d9e8a52	0.07741226
215	0x3cc07aad	0.023495996
216	0xbd744411	-0.059635226
217	0x3e0fdc74	0.1404894
218	0xbddb1069	-0.10696489
219	0xbdf1c3d2	-0.11804928
220	0xbd48b2df	-0.04899871
221	0x3ce8cdfb	0.028418532
222	0xbe2357e3	-0.15951495
223	0xbd14162d	-0.03615396
224	0xbcfc0d93	-0.030768191
225	0x3dcbd41f	0.09952568
226	0xbd8d385a	-0.06895514
227	0xbcf62d20	-0.030050814
228	0xbd4d3217	-0.050096598
229	0x3d39752f	0.04527777
230	0x3d58ce9a	0.052931406
231	0x3b8a8fdd	0.0042285756
232	0xbb547b00	-0.0032421947
233	0x3c5a9c34	0.013342906
234	0x3d44b941	0.048028234
235	0x3d7742d0	0.06036645
236	0x3d489ea3	0.048979413
237	0xbd0e78d7	-0.03478321
238	0xbc830408	-0.015993133
239	0x3df6e1d0	0.12054789
240	0xb9c6a965	-0.00037891712
241	0xbd071d2c	-0.032986805
242	0x3d21a46f	0.039463457
243	0xbd80a559	-0.062815376
244	0x3d4fa33c	0.05069278
245	0x3d062fed	0.03276055
246	0xbd900fa9	-0.07034237
247	0x3cf533d9	0.02993195
248	0x3ccb986e	0.024852958
249	0x3c828b3d	0.015935535
250	0xbd08c401	-0.03339005
251	0x3ea197b3	0.3156105
252	0x3d8ed96f	0.06975066
253	0x3d7daf45	0.06193473
254	0x3e67872f	0.22610162
255	0x3ca25118	0.01981406

network_body._body_endoder.seq_layers.2.bias f4 [128]
0	0x3ca736ed	0.020411933
1	0x3c27d080	0.010242581
2	0xbb9bf0a4	-0.004758911
3	0x3d4ae3ad	0.049533535
4	0x3c5bf0a5	0.013424073
5	0x3c5903ea	0.013245562
6	0x3b9e7902	0.0048362026
7	0x3c2934b2	0.010327505
8	0x3c7c3d30	0.015395448
9	0x3d234c4c	0.039867684
10	0x3c7ef8c5	0.015562241
11	0x3d2863e9	0.041110907
12	0x3bff0a29	0.0077831936
13	0x3d1af7aa	0.037833847
14	0xb97f2166	-0.00024331137
15	0x3d41fb7d	0.04735898
16	0xbc291ad3	-0.010321337
17	0x3bb3c00a	0.0054855393
18	0x3d3b5fea	0.045745768
19	0x3cddcea6	0.027076077
20	0x3c853813	0.01626209
21	0x3c132de4	0.008983109
22	0x3c608401	0.013703347
23	0x3c74a951	0.014932946
24	0x3c61bf1f	0.013778477
25	0x3c2e2343	0.010628524
26	0x3cd5275f	0.02601975
27	0x3d6129c6	0.05497148
28	0xbb0f7b57	-0.0021893585
29	0x3be8960e	0.007097966
30	0x3c59661d	0.013268975
31	0x3c87c12b	0.016571602
32	0x3d3280ef	0.043579992
33	0x3cab8a15	0.020939866
34	0x3d10a699	0.03531513
35	0x3d13f5ef	0.036123212
36	0xba893520	-0.0010468103
37	0x3ca2aa28	0.019856527
38	0x3baa22b8	0.005192127
39	0x3cad0461	0.021120252
40	0x3c63cce2	0.013903828
41	0x3d04ea6f	0.032450136
42	0x3c034b2a	0.008013526
43	0x3d0fa6c4	0.03507115
44	0xbbdee72d	-0.0068024606
45	0x3c48ec93	0.012263435
46	0x3c71bc43	0.014754358
47	0x3c95fb62	0.018308345
48	0x3cb25e8c	0.0217736
49	0xbbeb1972	-0.007174664
50	0x3bd17b86	0.006392899
51	0x3c9faf94	0.019492902
52	0x3c026660	0.007958978
53	0x3d60abfa	0.05485151
54	0x3c7279ca	0.014799545
55	0x3c98691d	0.01860481
56	0xba69a3c0	-0.0008912645
57	0x3afeb746	0.0019433282
58	0xbc5ab557	-0.013348899
59	0x3c169a1e	0.009192018
60	0x3b30e2e2	0.0026990701
61	0x3cc24596	0.023714822
62	0x3ce73848	0.02822508
63	0xbc7fa1b0	-0.015602514
64	0x3c071839	0.008245521
65	0x3bd0bbba	0.006370035
66	0x3d24ca48	0.040231973
67	0x3c1f7a36	0.009733727
68	0x3c034de2	0.008014174
69	0x3c160caf	0.009158297
70	0x3c6acac4	0.01433057
71	0x3cf1b2d2	0.029504213
72	0xbb943e2c	-0.004524013
73	0x3ce4809a	0.027893353
74	0x3b45c3c0	0.003017649
75	0x3c4ed527	0.012624062
76	0x3cbca85b	0.023029497
77	0xba4192c1	-0.0007384234
78	0x3b89dc5c	0.004207177
79	0x3ccf808d	0.025329852
80	0x3d018254	0.03161843
81	0x3c8a9eed	0.016921485
82	0xbc003542	-0.007825198
83	0x3ce2fc26	0.027708124
84	0x3cd4024c	0.025880001
85	0xba8a000c	-0.0010528578
86	0x3d5ca46c	0.053867742
87	0x3cfd8be4	0.030950494
88	0x3ae56729	0.0017502058
89	0x3ced8dbc	0.028998248
90	0x3a75523c	0.0009358262
91	0xbc453a94	-0.012037892
92	0xbbcb16de	-0.0061977943
93	0x3c84527e	0.016152617
94	0xbc2a9700	-0.010411978
95	0x3cb866e7	0.022510005
96	0x3c57a784	0.013162497
97	0x3d0ec847	0.034858968
98	0xbc383a71	-0.011244402
99	0x3d1cb2a3	0.0382563
100	0xbbf3328a	-0.007421796
101	0x3ccb1cb9	0.02479397
102	0x3cb8b6d4	0.022548117
103	0x3bd96e13	0.0066354363
104	0x3c92d6c2	0.01792467
105	0x3cb4d59f	0.022074519
106	0x3ca8b1f9	0.020592676
107	0x3be6ab19	0.0070394394
108	0x3d33fb2b	0.043940704
109	0x3d04c185	0.032411117
110	0x3c7e22ec	0.015511256
111	0x3ae0db14	0.0017155134
112	0x3cc38848	0.023868695
113	0xbcb4cdcf	-0.022070793
114	0x3c880770	0.016605109
115	0x3b6157cf	0.0034384613
116	0x3c2b53bc	0.010456976
117	0x3d179cc8	0.037014753
118	0x3c489933	0.012243557
119	0x3b5a09c6	0.0033269986
120	0x3a30a962	0.0006739107
121	0x3cde765f	0.027156053
122	0x3cb6013d	0.022217387
123	0x3cc22220	0.023697913
124	0x3cd06f20	0.025443614
125	0x3c63514f	0.013874366
126	0x3c06a6c1	0.008218468
127	0x3d23b0f3	0.039963674

action_model._discrete_distribution.branches.0.weight f4 [3, 128]
0	0xbc0b8137	-0.008514694
1	0x3c6140da	0.013748372
2	0xba331cca	-0.0006832598
3	0xbd2265e8	-0.039647967
4	0x3c5eb182	0.013592126
5	0xbc9bbdb5	-0.019011358
6	0x3ca05cf3	0.019575572
7	0x3ce518f1	0.027965995
8	0x3cad1c3a	0.021131624
9	0xbd483eb2	-0.048887916
10	0xbc5db167	-0.013531066
11	0xbd3b2785	-0.045691986
12	0x3d226b2a	0.03965298
13	0xbd13f834	-0.036125377
14	0x3cbeb72d	0.023280704
15	0x3cee87bc	0.029117458
16	0xbc436216	-0.011925241
17	0x3ca1f950	0.019772202
18	0x3d1f67e4	0.038917437
19	0x3c4a5438	0.012349181
20	0x3c82f81a	0.015987445
21	0x3cc35d7f	0.023848293
22	0x3cc4c0be	0.024017688
23	0x3cb52330	0.022111505
24	0x3d02c8b7	0.031929698
25	0xbc94ca21	-0.018162789
26	0xbcf44797	-0.029819293
27	0xbd029a1f	-0.031885263
28	0x3be33ac4	0.0069344956
29	0xbaca1426	-0.0015417382
30	0x3bb0a852	0.005391159
31	0xbcc6c051	-0.024261625
32	0x3d1b769b	0.037954908
33	0x3abd768c	0.0014454885
34	0xbd07b619	-0.033132646
35	0xbd417ed0	-0.04724008
36	0xbba264f5	-0.0049558827
37	0x3b779a15	0.003778105
38	0x3cad30b7	0.021141393
39	0xbcdceb18	-0.02696757
40	0x3caac506	0.020845901
41	0xbcafcb7a	-0.02145933
42	0xbb182009	-0.0023212454
43	0x3d4c35c6	0.04985597
44	0x3c65ac50	0.014018133
45	0x3c26bbd2	0.010176616
46	0xbbbee3de	-0.0058255037
47	0x3cd0f9b0	0.025509685
48	0xbd08f6e5	-0.033438582
49	0x3c10ff0f	0.008849873
50	0xbb8228c8	-0.0039721467
51	0x3c98f825	0.018673012
52	0xbb9ebb2f	-0.0048440914
53	0xbd51906c	-0.051163122
54	0xbbb3c7d7	-0.0054864693
55	0x3d0bfd42	0.034177072
56	0x3b644d67	0.0034836174
57	0x3ae9b354	0.0017829933
58	0xbb9708ee	-0.004609219
59	0x3cc96fdf	0.024589477
60	0x3c1d3f28	0.009597577
61	0xbc72bb79	-0.014815205
62	0xbcb3cef2	-0.021949265
63	0x3a4be0b3	0.0007777318
64	0x3ba601ae	0.005066118
65	0x3c610b75	0.013735642
66	0x3d5b5aa9	0.053553257
67	0x3ce571e4	0.028008409
68	0x3d1ac999	0.037789915
69	0x3c4051d0	0.011738256
70	0xbb417aaf	-0.0029522588
71	0xbcce94f8	-0.025217518
72	0x3a88f818	0.0010449914
73	0xbc78e023	-0.015190157
74	0x3ae45385	0.001741991
75	0xbcd9cae7	-0.02658601
76	0xbc597258	-0.013271891
77	0xbac658df	-0.0015132687
78	0x3c75b121	0.014995844
79	0xbc349a57	-0.011023126
80	0xbd26d826	-0.04073348
81	0xbbf095a5	-0.007342058
82	0xb9a0b98e	-0.00030655827
83	0xbc8d0cf6	-0.017218094
84	0x3d6833db	0.05669008
85	0x3c8d4567	0.017245008
86	0xbb49bc45	-0.0030782383
87	0xbccd917a	-0.025093783
88	0x3b97eff1	0.0046367575
89	0x3ccae9c6	0.024769675
90	0x3c4a3040	0.012340605
91	0xbc3b9f35	-0.011451532
92	0xbbcb34f5	-0.0062013813
93	0xbca0a81f	-0.019611416
94	0xba813fcb	-0.0009860931
95	0x3d6b7218	0.057481855
96	0xbcdded6f	-0.027090756
97	0xbcd823d6	-0.026384275
98	0x3c9959f6	0.018719655
99	0x3d305040	0.043045282
100	0x3bd2d026	0.0064335046
101	0x3d187a4d	0.03722601
102	0xbbc7d97e	-0.006098925
103	0xbc314b01	-0.010821105
104	0x3c11cbf5	0.008898725
105	0xbb66bfea	-0.0035209605
106	0x3d00446c	0.031315252
107	0xbca073c8	-0.019586459
108	0xbd59d5b2	-0.05318231
109	0xbc02ca2e	-0.007982774
110	0xbc9d7246	-0.019219529
111	0x3c8d562a	0.017253
112	0xbc3b5c7a	-0.011435622
113	0x3c354db8	0.011065893
114	0xbc91fbaa	-0.017820198
115	0x3cd54822	0.026035372
116	0x3c39e214	0.011345405
117	0xbd5bd58d	-0.053670455
118	0x3ccbe891	0.02489117
119	0x3bd2616e	0.006420306
120	0x3a2ff7d3	0.0006712649
121	0xbc87f11e	-0.016594466
122	0x3cb8d7b3	0.02256379
123	0xbcc0ee13	-0.023551023
124	0x3cc1314b	0.023583075
125	0x3c678d34	0.014132787
126	0xbb947407	-0.004530433
127	0x3d126539	0.035741065
128	0xbc017023	-0.007900271
129	0x3a42a752	0.00074254454
130	0xb80183b7	-3.0878666e-05
131	0xbce6f2d2	-0.028191958
132	0x3b3d40fd	0.0028877847
133	0xbc3c52a5	-0.011494313
134	0x3bf93ba9	0.007605989
135	0x3aa4667b	0.0012542749
136	0x3b834e6f	0.0040071527
137	0x3a8ece88	0.0010895291
138	0x3c97943e	0.018503305
139	0x3bef0f79	0.0072955457
140	0x3a8f8d0c	0.001095207
141	0xbb4722b3	-0.0030385673
142	0x3c1749ed	0.009233934
143	0xbcc18c57	-0.02362649
144	0x3b34fc48	0.0027616192
145	0xbca2000d	-0.019775415
146	0x3c051410	0.008122459
147	0xbc88a4cb	-0.016680142
148	0xbbca9bbf	-0.006183117
149	0xbbe493c2	-0.006975622
150	0x3ba20841	0.0049448316
151	0x3ba15458	0.0049233846
152	0x3bda58b1	0.006663405
153	0xbc140261	-0.00903377
154	0x3b964b3e	0.0045866063
155	0x3bf82c9e	0.007573678
156	0xbc376ce4	-0.011195395
157	0xbbd9f3fd	-0.0066514
158	0xba28c669	-0.0006438257
159	0x3aed8e63	0.00181241
160	0x3cc55857	0.024089975
161	0xbc424b12	-0.0118587185
162	0x3c3757a2	0.011190327
163	0xbb976853	-0.0046205907
164	0x3ca1ef7c	0.019767515
165	0x3c021441	0.007939399
166	0x3c32763c	0.010892447
167	0xbc591bab	-0.013251225
168	0xbc046c0b	-0.0080824
169	0xbc65cea7	-0.014026321
170	0xbb9f0cab	-0.004853805
171	0xbc34a4da	-0.011025632
172	0xbbb95e7b	-0.005657015
173	0xbc3104af	-0.010804339
174	0x39b710a9	0.00034916893
175	0x3c660295	0.014038702
176	0xbc81c2b1	-0.015839906
177	0xbbfba3a2	-0.0076794187
178	0x3a482809	0.000763536
179	0x3b40ecf3	0.0029438108
180	0x3c525b54	0.012839157
181	0xba1b2d1a	-0.00059195014
182	0xbc3381f5	-0.010956277
183	0xbc213429	-0.009839096
184	0x3cc86600	0.0244627
185	0xbb1b7208	-0.002371909
186	0x3c169497	0.0091907
187	0x3c0901bf	0.008362233
188	0x3c8a7045	0.016899237
189	0x3c97e3b7	0.0185412
190	0xbc457343	-0.012051406
191	0x3c7577bf	0.014982163
192	0xbbfbff42	-0.007690341
193	0xbc48ad68	-0.0122483745
194	0xbb3bbe5a	-0.0028647394
195	0xbb8b3e1e	-0.0042493483
196	0xbb90bda6	-0.004417139
197	0x3b9e31c9	0.004827712
198	0xbc8c2e6e	-0.017111983
199	0xbbcedace	-0.0063127046
200	0x3ab02973	0.0013440087
201	0xbc717ec0	-0.014739692
202	0x3c6e705f	0.014553159
203	0xbab71e7b	-0.0013970876
204	0xba58f26e	-0.0008275871
205	0x3c7348e5	0.014848922
206	0x3ccaffba	0.024780143
207	0x3a1314a4	0.00056106807
208	0xbc91b856	-0.017788094
209	0x3c0df082	0.008663299
210	0xbc3022ce	-0.010750486
211	0xbcc18ab5	-0.023625711
212	0xbbc240f6	-0.005928154
213	0x3c667463	0.014065835
214	0xbb98d897	-0.0046644914
215	0xbc4b90c7	-0.012424654
216	0x3c109bba	0.008826191
217	0xbc335492	-0.010945456
218	0x39933c92	0.00028083153
219	0x3ba9262f	0.0051620225
220	0xbc9e238b	-0.019304058
221	0xbcd3b5ac	-0.025843464
222	0xbb491dec	-0.0030688
223	0xbcb45750	-0.02201429
224	0xbc593e90	-0.013259545
225	0xbc4546c7	-0.0120408
226	0xbc5c1765	-0.013433312
227	0xbcf1a0db	-0.029495647
228	0x3bc3887c	0.005967198
229	0xbad79d3a	-0.0016450055
230	0x3c2cd715	0.010549326
231	0x3bfc4b85	0.0076994323
232	0xbcd92e26	-0.026511263
233	0xbc58cf29	-0.013232985
234	0xbcca69bc	-0.024708621
235	0xba392afd	-0.00070635957
236	0xbc62677e	-0.01381862
237	0xbc5c3286	-0.01343978
238	0xb8d17e8c	-9.989468e-05
239	0x3bc7aab8	0.0060933493
240	0xbb4abf16	-0.003093665
241	0x3c8dea08	0.017323509
242	0xbb6ff005	-0.0036611569
243	0x3c87a9bf	0.016560433
244	0xbbde9f86	-0.006793919
245	0xbc98e5dd	-0.018664295
246	0x3a90a9a6	0.0011036887
247	0x3b5e0045	0.0033874672
248	0xbb18aead	-0.0023297474
249	0xbc8fdb04	-0.01756049
250	0xbab0bc83	-0.0013483915
251	0x3c96bd8b	0.018400928
252	0x3bcfdc64	0.0063434113
253	0xbc0f73b4	-0.008755613
254	0xbaa0d2ec	-0.0012269891
255	0x3b8514c8	0.004061315

action_model._discrete_distribution.branches.0.bias f4 [3]
0	0x3b87a61f	0.004139676
1	0xbc4ebb4f	-0.0126179
2	0x3b7b13fb	0.003831147

action_model._discrete_distribution.branches.1.weight f4 [3, 128]
0	0x3cedbd3f	0.029020904
1	0x3c813fa4	0.015777417
2	0xb9daa289	-0.00041701298
3	0x3d4d8f19	0.050185297
4	0xbcef2367	-0.029191686
5	0x3c94f223	0.018181866
6	0xbc808a9d	-0.015691096
7	0xbbc589b9	-0.0060283807
8	0x3c1dfa9d	0.00964227
9	0xbd0ca158	-0.034333557
10	0xbcdcacd1	-0.026937874
11	0xbd18e448	-0.03732708
12	0x3b86fa2a	0.0041191773
13	0xbc4c1d31	-0.012458132
14	0xbbe579c8	-0.007003043
15	0x3c38071b	0.011232163
16	0xbbf85f6a	-0.0075797336
17	0xbce72637	-0.028216464
18	0xbb4dad09	-0.0031383655
19	0x3d329ad4	0.043604687
20	0xbd2f2629	-0.042761
21	0x3c89149b	0.016733458
22	0x3bfe9e1f	0.0077703143
23	0xbc820fa6	-0.015876602
24	0x3c59ce0c	0.013293754
25	0x3cb0a0be	0.021561023
26	0xbc72468e	-0.014787329
27	0xbd2e3f60	-0.042540908
28	0x3c5c0e66	0.013431167
29	0xbd1919df	-0.03737819
30	0x3c97b29c	0.018517785
31	0xbcfba02f	-0.03071603
32	0xbd4cea99	-0.050028417
33	0x3d0d761e	0.034536473
34	0xbd39e8aa	-0.0453879
35	0xbc90f979	-0.017697083
36	0xbcea6834	-0.028614141
37	0x3c8a2508	0.016863361
38	0xbc8dd6b1	-0.017314287
39	0xbc37418f	-0.011185064
40	0x3cc23680	0.023707628
41	0xbbf773f4	-0.0075516645
42	0x3c3e6b8d	0.011622322
43	0x3cae5cfa	0.021284569
44	0x3baf9a76	0.0053589894
45	0x3b6db242	0.003626958
46	0xbcdf5406	-0.027261745
47	0x3a29bb6c	0.00064747664
48	0xbc24331d	-0.010021952
49	0x3bde4335	0.006782914
50	0x3c96f0e9	0.018425422
51	0xbcf8a578	-0.03035234
52	0xbcf8c128	-0.030365542
53	0xbd0735d8	-0.033010334
54	0xbc86fa5f	-0.016476808
55	0xbb4d7b04	-0.003135384
56	0xbc12e711	-0.008966223
57	0xbc041e03	-0.008063796
58	0x3b44612b	0.0029965143
59	0xbd420040	-0.04736352
60	0xbc690c79	-0.014224165
61	0xbd1d0edf	-0.03834426
62	0xbbc15056	-0.0058994694
63	0xbbb50c09	-0.0055251163
64	0xb788727d	-1.6265776e-05
65	0x3c2f38b5	0.010694672
66	0xbd23a747	-0.03995445
67	0xbcd57753	-0.026057875
68	0xbd0fa98f	-0.035073813
69	0x3d005356	0.031329475
70	0xbc990bfe	-0.018682476
71	0x3d402179	0.046906922
72	0x3ae5658f	0.001750158
73	0x3bd66355	0.006542603
74	0xbcb7dc48	-0.022443905
75	0xbc32bb58	-0.010908924
76	0x3c542aac	0.012949627
77	0x3bfed4a4	0.0077768136
78	0xbcaf8c45	-0.02142919
79	0xbd2a026a	-0.04150621
80	0xbccf692d	-0.025318706
81	0xbd137e67	-0.03600922
82	0xbcea7b88	-0.028623357
83	0x3cc55d76	0.024092417
84	0xbd32aefa	-0.043623902
85	0xbc507760	-0.012723774
86	0x3d773bf9	0.06035993
87	0x3ca3175a	0.019908596
88	0xbad4b75f	-0.0016228965
89	0x3ce1563a	0.027506936
90	0xbb8d9ef6	-0.004321928
91	0xbb712f67	-0.0036801936
92	0xbb763822	-0.003757008
93	0xbd2766c3	-0.040869486
94	0xbc226787	-0.009912378
95	0x3c484183	0.01222265
96	0x3c63b127	0.013897217
97	0x3cb788ab	0.022404036
98	0xbcc71c1c	-0.024305396
99	0xbc7f8e17	-0.015597842
100	0xbd0b6f0e	-0.034041457
101	0x3b837d67	0.004012752
102	0x3d1b911e	0.03798019
103	0xbcd30b8c	-0.025762342
104	0x3c23eb9f	0.010004907
105	0x3c5adf43	0.013358894
106	0xbd25e4a8	-0.040501267
107	0xbc8fc203	-0.017548567
108	0xbb08e762	-0.0020889868
109	0x3cc828c7	0.024433507
110	0xbcfa0fe0	-0.030525148
111	0xbc1554fa	-0.009114498
112	0x3ccc6f52	0.024955425
113	0xbbd20a09	-0.0064098877
114	0x3c8955b3	0.016764497
115	0x3b99e87c	0.0046969038
116	0x3c18b701	0.009320975
117	0xbc60a92f	-0.0137122115
118	0xbc60ed6d	-0.013728482
119	0x3cb5378c	0.022121213
120	0x3b422181	0.002962202
121	0x3cdb5495	0.02677373
122	0x3d3994b8	0.045307845
123	0xbbe18c80	-0.006883204
124	0x3d2e9d81	0.042630676
125	0xbd3d9225	-0.046281952
126	0x3c4bf93d	0.01244956
127	0x3d9292fd	0.07156942
128	0xbc4f0aeb	-0.01263688
129	0x3c9bc9f8	0.019017205
130	0xbc0fb84a	-0.008771965
131	0xbc847b27	-0.016172005
132	0x3c43bd69	0.011947014
133	0x3c2bb185	0.010479336
134	0x3c1c7460	0.00954923
135	0x3c2c0c5f	0.010500996
136	0x39e0d88f	0.00042885958
137	0xbc2016b2	-0.009771036
138	0x3be57ebb	0.007003633
139	0xbc163de0	-0.009170026
140	0x3bbae41a	0.0057034614
141	0x3cae92ca	0.021310229
142	0xbbe30226	-0.0069277463
143	0x3cb3977c	0.02192282
144	0xbb866f51	-0.0041026254
145	0x3c38ae8b	0.011272083
146	0x3a9ea6b7	0.0012104128
147	0x3b89ba01	0.0042030816
148	0xbc31d0d3	-0.01085301
149	0x3b8f9938	0.004382279
150	0x3bf64a8d	0.0075162114
151	0xbc11ee51	-0.008906917
152	0xbd133f46	-0.035949014
153	0xbbd41ba9	-0.006473024
154	0xbb45ea39	-0.0030199422
155	0xbc8f1399	-0.0174654
156	0x3c074032	0.008255051
157	0x3bfd25c8	0.007725451
158	0x3c3e542d	0.011616749
159	0xbc1acb8d	-0.009447944
160	0x3b51a682	0.0031990116
161	0x3c9b1754	0.018932022
162	0xbcb1455f	-0.021639524
163	0xbbb960ab	-0.0056572757
164	0x3c670df6	0.01410245
165	0x3b66acaf	0.0035198142
166	0xbb88a899	-0.004170489
167	0xbb97fd2b	-0.0046383343
168	0x3aa80101	0.0012817682
169	0x3c35085c	0.011049356
170	0xbb6425b8	-0.0034812521
171	0x3acb6fe1	0.0015521013
172	0xbc42ed36	-0.011897376
173	0xbc3ca84c	-0.0115147345
174	0x3c2c5875	0.010519137
175	0x3bcc6399	0.006237459
176	0xbb1aeec6	-0.0023640855
177	0xbbffbd70	-0.007804565
178	0x3c54dfa4	0.012992773
179	0x3b950728	0.004547972
180	0xbc5355eb	-0.012898902
181	0xbb0b86e5	-0.002129012
182	0xbbe1fc55	-0.0068965354
183	0x3cb70675	0.022341946
184	0x3a859efa	0.0010194473
185	0x3c8a2164	0.016861625
186	0xbc21e37f	-0.009880899
187	0xbb77ad43	-0.003779248
188	0x3b4dad1a	0.0031383694
189	0x3c37b628	0.011212863
190	0x39b29a7d	0.00034065908
191	0x3baaba0e	0.0052101677
192	0x3cb6aa64	0.022298045
193	0xbb02a8c4	-0.0019937018
194	0x3cf792e1	0.030221405
195	0x3c1ccedc	0.0095708035
196	0x3d05ce82	0.032667644
197	0xbabdc9bc	-0.0014479677
198	0x3c61b63d	0.013776359
199	0xba2be411	-0.0006557117
200	0x3bb7ec9e	0.0056129238
201	0x3a3165e7	0.0006767199
202	0xbc437255	-0.011929114
203	0x3c8d1bea	0.017225225
204	0x3c6c54df	0.014424532
205	0x3b8fc836	0.0043878807
206	0x3bbe3249	0.0058043343
207	0x3c1b0864	0.00946245
208	0x3b8a8871	0.004227691
209	0xbc4d255a	-0.012521112
210	0xbb7132c8	-0.003680395
211	0xbc8fd4ce	-0.017557528
212	0x3bae90bb	0.005327312
213	0xbb16e945	-0.0023027223
214	0xbc93c393	-0.018037593
215	0xbb2fa724	-0.0026802504
216	0x3c57ffd1	0.01318355
217	0x3b77a0c8	0.0037785042
218	0x3be26096	0.0069084866
219	0x3b27f859	0.0025630204
220	0x3c19e8ab	0.009393851
221	0x3add0a9c	0.0016864124
222	0x3bffc440	0.0078053772
223	0x3c007133	0.007839489
224	0xbc4a0337	-0.012329868
225	0x3ac1bc96	0.0014780934
226	0x3bcf01e9	0.0063173664
227	0x3c0fe0bb	0.008781607
228	0xbaf7b1ac	-0.0018897555
229	0x3c6ae91d	0.014337805
230	0xbc0f70a0	-0.008754879
231	0x3cd0f773	0.025508618
232	0x3c204dc0	0.009784162
233	0x3a6b5176	0.0008976677
234	0xbbfd85fb	-0.007736919
235	0xbca59e5f	-0.020217119
236	0xbc8d9ff2	-0.017288182
237	0x3a80a781	0.0009815545
238	0xbb533f5e	-0.0032233815
239	0x3c8d4931	0.017246814
240	0xbb90558c	-0.004404729
241	0x3bfae915	0.00765718
242	0x3c03d6ce	0.008046819
243	0x3cb8612b	0.02250727
244	0x3a344839	0.0006877217
245	0xbc211ed1	-0.009834007
246	0xbc47ed56	-0.012202581
247	0x3b1c496e	0.0023847478
248	0x3bcf8dc2	0.0063340375
249	0xbb20b1d1	-0.002452005
250	0xbc229522	-0.009923251
251	0xbc8cb929	-0.017178135
252	0xbc2a043a	-0.010376984
253	0x3b6cab99	0.0036113022
254	0x3c3b72a1	0.011440904
255	0x3bcf9b33	0.00633564

action_model._discrete_distribution.branches.1.bias f4 [3]
0	0x3a25e2fa	0.00063280726
1	0x3b4653b5	0.0030262296
2	0xbb5a4aa5	-0.0033308652
